artifacts/flow_cnn_state.pt (torch, 939185 bytes, 22 tensors)

conv.0.weight f4 [64, 88, 7]
-0.0002558338 -0.00024913214 -0.00024505673 -0.0002394949 -0.00024030276 -0.00020642369 -0.00015420395 -0.0007337417
-0.0007299558 -0.0007208387 -0.000706399 -0.00069517485 -0.0006823321 -0.00065513584 0.000383251 0.00039938392
0.00041158122 0.00042538313 0.00042239873 0.00045851286 0.0005201629 0.001019993 0.0010467214 0.0010680525
0.0010929342 0.0010899237 0.0011320852 0.0011971217 4.440393e-05 4.133507e-05 3.898853e-05 3.4239965e-05
3.4410714e-05 2.3234335e-05 4.8805473e-06 0.0026884016 0.0027227062 0.0027481746 0.0027790184 0.0027786107
0.0027703403 0.0027376143 7.218419e-05 6.683942e-05 6.2525934e-05 5.809311e-05 5.801022e-05 3.4196837e-05
-7.751483e-06 0.00020493791 9.840508e-05 0.00028398857 0.0006335292 0.0008826566 0.0010250887 0.0011234274
0.00093260175 0.0007065985 0.00036524222 -3.24776e-05 -0.00033488116 -0.00036213006 -0.00015068917 -0.002669518
-0.0026828889 -0.0027333216 -0.0027773364 -0.0028471444 -0.0030356483 -0.0028996833 -0.002681128 -0.0026731316
-0.0027002918 -0.0026877518 -0.0026983274 -0.002849459 -0.0027134207 -0.002825996 -0.0027861174 -0.0027355917
-0.0027069047 -0.0026483561 -0.0027553316 -0.0025620142 -0.0018317138 -0.0018678899 -0.0019529471 -0.0020525362
-0.0021482594 -0.0023323183 -0.0021995713 0.0014360652 0.0013853704 0.0013475181 0.0013261569 0.0013769604
0.0012892757 0.0013755468 -0.000255793 -0.00024905746 -0.00024455242 -0.00023954434 -0.00024200382 -0.00021067451
-0.00015366806 -0.00025491783 -0.00024848772 -0.00024445736 -0.00023898821 -0.00024155263 -0.00021285226 -0.00016083659
-0.00025457522 -0.00024793402 -0.0002434482 -0.00023811279 -0.00024093124 -0.00021235176 -0.00016060905 -0.0002644637
-0.000257361 -0.00025260437 -0.00024663933 -0.00024885533 -0.00021952651 -0.00016750263 -0.00036002535 -0.00035221348
-0.00034709598 -0.00034077707 -0.00034230144 -0.0003112027 -0.00025565998 -0.000743063 -0.0007369993 -0.0007326771
-0.0007218389 -0.00070445234 -0.00068059855 -0.0006390862 -0.00078712107 -0.0007684081 -0.0007504057 -0.000742501
-0.0007319878 -0.0007139371 -0.0006637854 -0.00083692453 -0.00083089405 -0.0008226752 -0.00079668395 -0.0007711971
-0.0007442077 -0.00070781953 -0.0007108008 -0.00071056857 -0.0007177485 -0.0007321304 -0.00075082335 -0.0007772171
-0.0007819467 -0.00090365356 -0.0009248457 -0.00094149716 -0.00096030947 -0.00097444357 -0.0009755476 -0.0009578696
0.00038100994 0.00039641897 0.0004093388 0.00042178013 0.0004176186 0.00045204253 0.0005142536 0.00038071373
0.00039385533 0.00040399013 0.00041645972 0.00041177322 0.0004452241 0.00050556817 0.0003804832 0.00039387206
0.00040352505 0.0004136943 0.00040619948 0.00043713482 0.0004978409 0.00035600766 0.00037022526 0.00038099603
0.0003939692 0.00039152525 0.0004268165 0.00048751596 0.0002910471 0.00030295143 0.00031170348 0.00032085332
0.00031361508 0.0003495047 0.0004085217 0.0010151428 0.0010415898 0.0010638863 0.0010851622 0.0010795083
0.0011181071 0.0011843395 0.0010171949 0.0010375703 0.0010541325 0.0010761668 0.0010676166 0.0011043175
0.0011690722 0.0010209155 0.0010421046 0.0010581687 0.0010739977 0.0010586879 0.0010898616 0.0011566342
0.00097450084 0.0010005023 0.0010224332 0.0010461075 0.0010410037 0.0010803404 0.0011491406 0.00076670694
0.00078793144 0.0008046013 0.0008229111 0.00081508054 0.00085936324 0.00093931286 -0.0026690478 -0.0026822563
-0.002710019 -0.0027311936 -0.00276576 -0.002944389 -0.0028014735 -0.00433806 -0.00498383 -0.0045135976
-0.0040367865 -0.004042249 -0.0045952844 -0.0042622266 -0.0026690483 -0.0026822563 -0.0027100192 -0.002731193
00000000: 6e21 86b9 f39d 82b9 f57a 80b9 ec20 7bb9
00000010: c8f9 7bb9 7073 58b9 cfb1 21b9 9258 40ba
00000020: 815a 3fba abf6 3cba a22d 39ba 653c 36ba
00000030: 88de 32ba 6cbd 2bba 14ef c839 6764 d139
00000040: 7fc9 d739 f505 df39 6675 dd39 8e64 f039
00000050: 8b5b 083a 49b1 853a 2432 893a e5fd 8b3a
00000060: c940 8f3a c5db 8e3a 7a62 943a bde8 9c3a
00000070: 5b3e 3a38 325f 2d38 9e87 2338 e29c 0f38
00000080: 3954 1038 5be7 c237 95c3 a336 e52f 303b
00000090: 6e6f 323b b81a 343b 3120 363b 5a19 363b
000000a0: 998e 353b 8c69 333b 9861 9738 242c 8c38
000000b0: 5b20 8338 00a9 7338 0050 7338 936e 0f38
000000c0: 5e0c 02b7 9ae4 5639 d35e ce38 4de4 9439
000000d0: 6d13 263a 1562 673a 455c 863a f83f 933a
000000e0: d879 743a 063b 393a fb7d bf39 8f38 08b8
000000f0: fd92 afb9 46dc bdb9 5102 1eb9 15f3 2ebb
00000100: 68d3 2fbb 8721 33bb f903 36bb 2897 3abb
00000110: baf1 46bb 9d08 3ebb ddb5 2fbb b52f 2fbb
00000120: 61f7 30bb fe24 30bb 6cd6 30bb fdbd 3abb
00000130: a5d3 31bb 5834 39bb 4b97 36bb 9d47 33bb
00000140: 5366 31bb 0b90 2dbb cb92 34bb 77e7 27bb
00000150: 1e16 f0ba fcd3 f4ba 08fa ffba d883 06bb
00000160: d0c9 0cbb cfd9 18bb af26 10bb 5a3a bc3a
00000170: 5195 b53a 349f b03a 71d2 ad3a 207b b43a
00000180: eafc a83a b14b b43a f51b 86b9 ed93 82b9
00000190: 4537 80b9 322e 7bb9 68c2 7db9 82e8 5cb9
000001a0: f521 21b9 7ea6 85b9 7547 82b9 832a 80b9
000001b0: e998 7ab9 4a49 7db9 1831 5fb9 3ea6 28b9
000001c0: 8278 85b9 24fd 81b9 2146 7fb9 eaad 79b9
000001d0: 7da2 7cb9 beaa 5eb9 2a69 28b9 b8a7 8ab9
000001e0: 69ee 86b9 fc6f 84b9 5f4f 81b9 cc78 82b9
000001f0: b330 66b9 a5a3 2fb9 c9c1 bcb9 4ba9 b8b9
00000200: 6ffa b5b9 53aa b2b9 ec76 b3b9 eb28 a3b9
00000210: 1a0a 86b9 1dca 42ba 3033 41ba 2111 40ba
00000220: ca39 3dba ffaa 38ba 326a 32ba 5988 27ba
00000230: cd56 4eba ff6e 49ba e0b6 44ba 66a4 42ba
00000240: dfe2 3fba 8227 3bba e201 2eba 0e65 5bba
00000250: 5bd0 59ba cca8 57ba 8ed8 50ba 292a 4aba
00000260: ef16 43ba f78c 39ba 0955 3aba 7345 3aba
00000270: 4927 3cba 70ec 3fba e7d2 44ba 28be 4bba
00000280: 8efb 4cba 2ae3 6cba 5871 72ba cece 76ba
00000290: 47bd 7bba cd71 7fba e4bb 7fba 8a19 7bba
000002a0: 4ac2 c739 74d6 cf39 869c d639 5f22 dd39
000002b0: d2f3 da39 1f00 ed39 face 063a 889a c739
000002c0: 5e7e ce39 a3ce d339 4758 da39 44e3 d739
000002d0: f86c e939 1b88 043a 977b c739 9d80 ce39
000002e0: 3790 d339 1ce5 d839 2cf7 d439 3e2f e539
000002f0: 8a81 023a 8aa6 ba39 cb1a c239 6cc0 c739
00000300: a78d ce39 a145 cd39 57c6 df39 4999 ff39
00000310: ae97 9839 74d5 9e39 226c a339 3438 a839
00000320: b46c a439 ba3d b739 db2e d639 8a0e 853a
00000330: f485 883a 1a72 8b3a 003c 8e3a 4a7e 8d3a
00000340: 738d 923a d73b 9b3a 6653 853a 15ff 873a
00000350: d12a 8a3a 2a0e 8d3a 45ef 8b3a bfbe 903a
00000360: 8e3b 993a 3dd0 853a 3a97 883a 40b2 8a3a
00000370: 62c5 8c3a acc3 8a3a b0d9 8e3a 349a 973a
00000380: a575 7f3a 4923 833a 2a03 863a 8b1d 893a
00000390: 4a72 883a 359a 8d3a c39e 963a d5fc 483a
000003a0: 2f8d 4e3a e1eb 523a a1b8 573a 21ab 553a
000003b0: e446 613a 383c 763a 31eb 2ebb cbc8 2fbb
000003c0: 939a 31bb d3fd 32bb c141 35bb a6f6 40bb
000003d0: ed98 37bb 4926 8ebb 654f a3bb cde6 93bb
000003e0: 0547 84bb d874 84bb 0a94 96bb 26aa 8bbb
000003f0: 33eb 2ebb cbc8 2fbb 949a 31bb d1fd 32bb

conv.0.bias f4 [64]
2.3646563e-18 -3.0201884e-06 2.3456721e-07 -1.106709e-32 8.29185e-08 -1.6034394e-06 1.3829853e-07 2.44276e-06
-2.3059508e-06 7.00826e-07 1.5858582e-06 4.802743e-06 -3.3284772e-07 -1.3021412e-06 9.113707e-07 1.8710759e-07
-1.0677081e-32 -4.4200561e-07 -2.4893725e-07 1.8120741e-06 1.7226569e-07 8.5471424e-07 7.8720916e-07 -3.9112924e-06
-1.6172028e-06 -6.4611555e-07 1.1263828e-32 7.038062e-08 -1.1698914e-06 9.949973e-08 -5.6583224e-07 -1.0461486e-06
-7.510007e-21 -1.0635306e-32 -3.1369706e-07 -4.9137527e-11 5.5074523e-08 1.2909456e-06 1.300652e-06 -2.8548175e-08
-1.0700009e-32 -3.0454822e-07 -2.464502e-07 -7.755524e-07 -1.3883353e-07 -9.2841907e-07 1.1612437e-32 1.1139477e-32
2.304894e-06 1.08304995e-32 -4.0789666e-07 8.594358e-08 -3.2152514e-07 -1.1875288e-06 -1.7818878e-06 -1.3641965e-06
-3.678116e-07 -1.3988075e-06 -1.5985581e-06 -1.664506e-26 1.0349021e-32 4.0537175e-06 -1.3612521e-06 3.430451e-07
00000000: 187b 2e22 71ae 4ab6 58dd 7b34 beda 658a
00000010: ed10 b233 c235 d7b5 367f 1434 4cee 2336
00000020: efbf 1ab6 6520 3c35 acd9 d435 4027 a136
00000030: 3eb2 b2b4 3bc5 aeb5 eba4 7435 bee7 4834
00000040: 1ac1 5d8a ca4c edb4 ada5 85b4 6436 f335
00000050: 08f8 3834 846f 6535 9a50 5335 bf3d 83b6
00000060: aa0e d9b5 b970 2db5 c8f0 690a 2824 9733
00000070: 2a05 9db5 8eac d533 b2e3 17b5 6469 8cb5
00000080: 2adc 0d9e fce2 5c8a 326a a8b4 f01b 58ae
00000090: 148b 6c33 8e44 ad35 1092 ae35 1a3a f5b2
000000a0: 023b 5e8a ca80 a3b4 dc4f 84b4 8e2f 50b5
000000b0: 4512 15b4 7938 79b5 4e2e 710a 9e5b 670a
000000c0: c7ad 1a36 d0f0 600a e4fc dab4 fc8f b833
000000d0: 149e acb4 2e63 9fb5 3329 efb5 6f19 b7b5
000000e0: a477 c5b4 a9be bbb5 0a8e d6b5 3ed8 a494
000000f0: d5f0 560a 2b05 8836 44b4 b6b5 c22b b834

conv.1.weight f4 [64]
0.08845553 0.52672267 1.157153 -0.0028307082 0.54803824 0.868439 0.2448537 1.1629603
0.60314316 0.47150275 0.83545166 0.81391424 0.44478053 1.0080878 0.45970652 0.56170946
0.0024147367 0.5639858 0.29735798 0.86278623 0.49432415 0.97647244 0.8260977 1.1115042
0.83236504 0.7081854 0.08832935 0.9257987 0.6554881 0.34876356 1.0785472 0.9992719
0.1237523 -0.0035209225 0.7110543 0.00034848182 0.5546908 0.6394856 0.58658123 0.5571013
-8.6628235e-05 0.51772726 0.7879058 0.5304842 0.70061815 0.37864855 6.480859e-30 -9.6407515e-33
1.1595113 -0.011413894 0.86192816 0.8596614 0.37681586 0.6424652 1.0322042 0.6666613
0.55980456 0.5535119 1.0344027 0.038047712 -6.301959e-18 0.31853098 1.0140138 0.3091904
00000000: 2c28 b53d 4cd7 063f 971d 943f 6783 39bb
00000010: 3c4c 0c3f 0552 5e3f eeba 7a3e e2db 943f
00000020: 9767 1a3f cf68 f13e 29e0 553f af5c 503f
00000030: 46ba e33e 0509 813f a75e eb3e 31cc 0f3f
00000040: 8f40 1e3b 6061 103f 4e3f 983e 8fdf 5c3f
00000050: 0e18 fd3e 19fa 793f 247b 533f c545 8e3f
00000060: e015 553f a34b 353f 05e6 b43d 2501 6d3f
00000070: 11ce 273f 2391 b23e d60d 8a3f 49d0 7f3f
00000080: d971 fd3d 47bf 66bb a807 363f 70b4 b639
00000090: 3700 0e3f 54b5 233f 302a 163f 319e 0e3f
000000a0: 2eac b5b8 c689 043f 32b4 493f d0cd 073f
000000b0: b65b 333f 39de c13e 8b72 030f 073b 488a
000000c0: de6a 943f 5701 3bbc 53a7 5c3f c512 5c3f
000000d0: 02ee c03e 9978 243f 441f 843f 51aa 2a3f
000000e0: 5a4f 0f3f f5b2 0d3f 4f67 843f ebd7 1b3d
000000f0: 5280 e8a2 7e16 a33e 34cb 813f 344e 9e3e

conv.1.bias f4 [64]
-0.22147267 -0.19509377 -0.065629974 -0.05066655 -0.13408625 0.17949925 -0.020624857 -0.2924372
-0.19773957 -0.26484272 -0.27382103 -0.24709496 -0.12849541 -0.015585206 -0.13770293 -0.11071734
-0.0023592496 -0.04890138 -0.040395685 -0.11575061 -0.05594256 0.32626224 -0.14066616 -0.7044052
-0.21100898 -0.3546108 -0.19529375 -0.06387103 -0.24147356 -0.27899557 0.33948025 -0.2550119
-0.21789019 -0.016592978 -0.20330083 0.012256079 -0.38737974 -0.2980339 -0.3126869 -0.35839468
-1.5798349e-06 -0.20284171 0.0013025943 -0.4364469 -0.15317726 -0.45961586 -4.6021006e-28 -1.0430326e-32
0.3256021 -0.036704917 0.14360645 -0.14002948 -0.2768461 -0.13639644 0.15396366 -0.084835224
-0.50064564 0.010421254 -0.4964282 -0.16818568 -4.1956879e-22 -0.4016554 -0.1422974 -0.23994458
00000000: bbc9 62be a9c6 47be 0269 86bd ba87 4fbd
00000010: e84d 09be a7ce 373e 76f5 a8bc 54ba 95be
00000020: 3e7c 4abe 7799 87be 4532 8cbe 7606 7dbe
00000030: 4d94 03be 1859 7fbc ff01 0dbe c6bf e2bd
00000040: a49d 1abb d04c 48bd f275 25bd a80e edbd
00000050: 0724 65bd d80b a73e ca0a 10be e653 34bf
00000060: bd12 58be 8c8f b5be 16fb 47be d1ce 82bd
00000070: d844 77be 82d8 8ebe 5bd0 ad3e eb90 82be
00000080: 9b1e 5fbe ffed 87bc 182e 50be b9cd 483c
00000090: a356 c6be e697 98be 7f18 a0be 827f b7be
000000a0: b70a d4b5 bdb5 4fbe d0bb aa3a f875 dfbe
000000b0: 80da 1cbe c552 ebbe add8 1192 20a1 588a
000000c0: 52b5 a63e e557 16bd 920d 133e e363 0fbe
000000d0: c6be 8dbe 82ab 0bbe a6a8 1d3e 17be adbd
000000e0: 502a 00bf e8bd 2a3c d62b febe de38 2cbe
000000f0: 209d fd9b c7a5 cdbe 69b6 11be 08b4 75be

conv.1.running_mean f4 [64]
-0.027263306 0.107941575 -0.90835756 7.8899005e-11 -0.43601924 0.08705008 0.29322383 -1.0112762
0.05204479 0.11094089 0.058872696 0.111169465 0.32655114 -0.5010973 0.027550045 0.99254596
-1.4706254e-32 -0.5373346 -0.088193096 -0.34217325 0.111806914 0.19564207 0.13729833 0.19979212
0.0026354431 0.51309043 -0.00012872621 -0.616862 -0.38247696 0.42967042 -0.41569036 0.19452554
-0.0063001644 1.6399914e-30 0.27717564 0.0145075135 0.3297224 0.04336125 0.2699173 -0.52117
-4.6607155e-32 1.1786718 -0.42158127 0.20033275 -0.14378075 -0.039646313 8.2118025e-32 9.55418e-32
-0.19255936 -6.6639354e-11 -0.5094791 -0.904017 0.9106367 0.16171503 -0.17876083 -0.42326957
0.44133824 0.21639377 0.3400871 0.013852921 -3.8521685e-32 0.11061823 -1.1744751 0.14796944
00000000: 4c57 dfbc 7910 dd3d 1f8a 68bf 3180 ad2e
00000010: ea3d dfbe 5047 b23d 6f21 963e 8071 81bf
00000020: eb2c 553d fa34 e33d 7f24 713d d1ac e33d
00000030: b631 a73e ea47 00bf a2b0 e13c 7e17 7e3f
00000040: eeb7 988a c38e 09bf 959e b4bd 5531 afbe
00000050: 06fb e43d 6556 483e ef97 0c3e 4e96 4c3e
00000060: 66b7 2c3b e559 033f aefa 06b9 abea 1dbf
00000070: 05d4 c3be c3fd db3e 5ed5 d4be b431 473e
00000080: 9c71 cebb 4a0d 050e f7e9 8d3e ecb0 6d3c
00000090: 60d1 a83e 919b 313d 9a32 8a3e 666b 05bf
000000a0: 89ff 718b b8de 963f 80d9 d7be 0724 4d3e
000000b0: 433b 13be 2c64 22bd ca30 d50b 6b0a f80b
000000c0: 482e 45be 9f8a 92ae 396d 02bf a86d 67bf
000000d0: 7d1f 693f a098 253e 140d 37be cab6 d8be
000000e0: 16f7 e13e 5496 5d3e e51f ae3e 5df7 623c
000000f0: 1a04 488b d08b e23d 3355 96bf 4d85 173e

conv.1.running_var f4 [64]
0.14942726 58.058025 253.00677 6.4192135e-18 50.14839 56.10047 30.545403 342.53375
25.745531 34.374336 11.104392 44.534943 39.20704 181.34364 31.513811 240.95067
0.0 91.22127 21.82281 59.939125 36.48895 130.45988 19.859503 38.829155
34.488743 138.17325 5.730579e-06 123.57411 90.51265 52.07781 96.033806 35.84152
0.011427066 0.0 107.04113 0.19063768 45.29126 42.98052 59.66538 66.74957
0.0 291.78775 457.75958 24.927298 59.613308 7.4956355 0.0 0.0
61.60048 3.1971407e-17 99.51456 239.24048 195.27321 57.287186 48.617386 112.58294
73.00333 44.162857 76.947296 0.063728385 0.0 18.891672 385.9671 23.827637
00000000: 7603 193e 6b3b 6842 bc01 7d43 c2d3 ec22
00000010: f497 4842 e266 6042 fc5c f441 5244 ab43
00000020: d9f6 cd41 527f 0942 97ab 3141 c823 3242
00000030: 02d4 1c42 f957 3543 491c fc41 5ff3 7043
00000040: 0000 0000 4a71 b642 1d95 ae41 aac1 6f42
00000050: aff4 1142 bb75 0243 43e0 9e41 0e51 1b42
00000060: 79f4 0942 5a2c 0a43 4c49 c036 f225 f742
00000070: 7a06 b542 ad4f 5042 4f11 c042 b75d 0f42
00000080: 9738 3b3c 0000 0000 0f15 d642 8636 433e
00000090: 402a 3542 0dec 2b42 59a9 6e42 c87f 8542
000000a0: 0000 0000 d5e4 9143 3ae1 e443 1b6b c741
000000b0: 0774 6e42 3fdc ef40 0000 0000 0000 0000
000000c0: e466 7642 2d71 1324 7407 c742 903d 6f43
000000d0: f145 4343 1426 6542 3478 4242 772a e142
000000e0: b401 9242 c4a6 3042 04e5 9942 0784 823d
000000f0: 0000 0000 2522 9741 cafb c043 009f be41

conv.4.weight f4 [128, 64, 7]
-1.1043515e-32 1.1443169e-32 -1.1665776e-32 1.1175989e-32 -1.12883604e-32 -1.0825396e-32 -1.0575457e-32 -2.5815767e-24
-3.9248323e-24 -2.9618276e-24 -3.1184697e-24 -3.3755651e-25 -4.206068e-25 3.952315e-26 9.958002e-33 9.739178e-33
9.554576e-33 -6.918278e-33 -9.874629e-33 -1.0593226e-32 -9.815276e-33 -1.06658215e-32 1.0362321e-32 -1.0192372e-32
-1.0519552e-32 -9.835285e-33 1.0381431e-32 1.06388234e-32 1.0211469e-32 -9.66432e-33 9.620691e-33 -1.0540711e-32
-1.0075969e-32 -9.894509e-33 1.0178797e-32 -1.4263733e-14 -1.0602658e-14 -8.339215e-15 -3.693258e-15 -1.8615815e-15
-3.7898324e-16 -7.999478e-17 2.580607e-32 2.5661812e-32 -4.5124356e-33 4.778143e-33 -7.5563995e-33 -1.03073854e-32
9.7654024e-33 2.504433e-31 3.906129e-28 -1.7340443e-26 5.159452e-26 -1.4398528e-26 -2.9643533e-28 -7.1771374e-30
-9.791092e-17 -4.9125475e-18 -5.994742e-20 -1.1872255e-24 7.4083666e-26 -1.4159283e-30 -2.2319872e-28 -9.671495e-33
2.9148594e-33 -9.564655e-33 -9.522468e-33 9.906631e-33 1.01277295e-32 -1.06154384e-32 4.6882782e-14 2.21903e-13
2.3106915e-13 1.5494387e-14 1.2518538e-13 4.1551466e-14 1.4449804e-14 1.5599331e-28 1.5574371e-28 1.1867861e-28
-1.1618634e-29 8.684148e-29 7.0769946e-31 -3.26827e-30 5.0338975e-27 5.2730394e-27 1.8456034e-26 -1.1599898e-27
-1.9772213e-27 -1.1788466e-27 -6.127665e-29 -4.8947747e-20 -5.3309785e-19 -1.2820408e-18 -1.1197277e-18 -2.8512714e-19
-2.6918648e-20 5.715133e-22 -9.8235865e-33 6.743033e-34 -1.9113278e-32 1.035687e-32 6.812853e-33 -7.882406e-33
9.729391e-33 3.9091828e-09 2.7540534e-09 1.5471926e-09 7.870178e-10 3.992656e-10 6.794216e-11 5.7873883e-11
-1.0543586e-32 1.1638491e-32 1.1446858e-32 1.11478536e-32 1.1646316e-32 1.1278914e-32 1.0517453e-32 -9.739194e-33
-1.06530094e-32 -1.0602012e-32 1.0423401e-32 9.925918e-33 -1.8370038e-35 1.0459813e-32 1.00307975e-32 1.4050381e-33
-1.4103287e-33 -9.635597e-33 9.6954855e-33 1.0188587e-33 9.98479e-33 -5.7693375e-15 -3.9072097e-15 -6.9630153e-15
-8.7403255e-15 -6.0131945e-15 -7.547494e-15 -2.3630028e-15 -2.0972523e-17 -8.427829e-17 -3.1410887e-17 -1.2485313e-17
-4.4870273e-19 -2.3099202e-19 6.793261e-22 -1.9017593e-12 -7.292147e-13 -7.1220037e-13 -6.08239e-12 -3.1926766e-12
-1.3557768e-11 -3.9950203e-11 -5.5950683e-10 -6.4647326e-10 -5.847946e-10 -2.691773e-10 -2.9687083e-10 -2.233564e-10
-1.5303311e-10 -1.9869883e-27 -1.9748938e-27 -1.8449577e-27 -6.789699e-28 1.2045754e-28 -6.556893e-30 5.108684e-31
-1.4910372e-08 -2.2172257e-08 -2.5821485e-08 -2.196062e-08 -1.8960037e-08 -1.0359251e-08 -4.941915e-09 7.005856e-17
1.3785529e-16 3.6717254e-17 8.213944e-19 1.2946965e-20 -9.734118e-23 -1.1270225e-23 -1.0692223e-32 1.0857858e-32
-1.05762885e-32 1.0470095e-32 -9.779075e-33 -1.0385372e-32 -1.09030444e-32 9.916999e-33 -9.960708e-33 -1.01623625e-32
-9.9154756e-33 -5.583561e-34 1.0092881e-32 -9.880489e-33 1.02733225e-32 1.0155949e-32 -1.0145379e-32 -3.6274874e-33
-9.981149e-33 1.1340046e-32 -1.0222147e-32 -2.2139453e-28 -4.5663814e-29 -2.2414907e-28 1.4474897e-29 2.3632489e-29
2.1681496e-29 -2.465381e-31 -6.5344364e-21 -4.1249823e-17 -1.5259206e-15 -4.1135444e-15 -2.060135e-15 -6.264391e-17
-4.3138252e-19 6.872276e-21 1.1374219e-21 1.6001799e-21 5.925022e-23 4.160699e-20 -1.3050692e-19 -8.02866e-19
1.1534151e-32 -1.1228692e-32 -1.10638e-32 -1.1340817e-32 -1.0732533e-32 -1.1254071e-32 1.0626297e-32 1.1184392e-32
1.06540585e-32 -1.05545404e-32 1.1145346e-32 1.0762524e-32 -1.1460132e-32 1.104543e-32 -6.742433e-14 -1.7467415e-13
-1.4410951e-13 -1.7052055e-13 -2.6452105e-14 -5.301243e-15 -3.2504918e-16 1.1145496e-32 -1.0550976e-32 1.15249896e-32
-1.15825396e-32 1.15392506e-32 1.0883172e-32 1.06589574e-32 1.0196604e-32 -1.0161381e-32 -9.8449606e-33 9.659963e-33
00000000: 665d 658a 53aa 6d0a e749 728a c01d 680a
00000010: 3873 6a8a add5 608a c6a4 5b8a 65bd 4798
00000020: a8d5 9798 0a29 6598 a847 7198 f7ef d096
00000030: e72b 0297 8bb5 4315 d2d1 4e0a 5a46 4a0a
00000040: d770 460a e0af 0f8a 8916 4d8a 4003 5c8a
00000050: f5da 4b8a 3c85 5d8a 8c37 570a f2af 538a
00000060: 887b 5a8a 5845 4c8a 289d 570a b0f5 5c0a
00000070: 7b15 540a 57b8 488a 5ed0 470a 08ec 5a8a
00000080: 0a45 518a 3c80 4d8a c567 530a ee79 80a8
00000090: 2100 3fa8 d739 16a8 4b10 85a7 1e24 06a7
000000a0: 0e78 daa5 9574 b8a4 27fe 050b 663e 050b
000000b0: 7270 bb89 ee79 c609 b6f0 1c8a 7613 568a
000000c0: c9d1 4a0a 088c a20c 9194 f711 3fbb ab94
000000d0: d37b 7f15 9b98 8e94 62e3 bb91 d491 118f
000000e0: 68c4 e1a4 b33d b5a2 fe8b 8d9f d9b6 b797
000000f0: 1a6c b715 5cbf e58d 1078 8d91 7dde 488a
00000100: 3428 7209 6ea6 468a 20c6 458a afc0 4d0a
00000110: 3f58 520a 5a79 5c8a 2b24 5329 2fd7 792a
00000120: 9314 822a a08f 8b28 3bf2 0c2a 9421 3b29
00000130: fb26 8228 b9be 4511 b96d 4511 6971 1611
00000140: 66a7 6b8f 582b dc10 5fa9 650d a893 848e
00000150: c969 c713 f9e2 d013 9bc7 b614 c7ce b792
00000160: d0a6 1c93 b3cb ba92 d25a 9b90 3226 679f
00000170: bc57 1da1 2232 bda1 1e3e a5a1 324f a8a0
00000180: 4c3d fe9e b3ba 2c1c 2507 4c8a 6113 6008
00000190: cf7b c68a 911a 570a 577f 0d0a 0fb6 238a
000001a0: 5112 4a0a 8951 8631 d241 3d31 00a5 d430
000001b0: 7455 5830 a37f db2f 0968 952e 3388 7e2e
000001c0: 52fb 5a8a d5b8 710a f0bd 6d0a 2888 670a
000001d0: 70e2 710a fe40 6a0a 5f70 5a0a 7046 4a8a
000001e0: 1d41 5d8a f731 5c8a 4e7c 580a 3b27 4e0a
000001f0: 0058 c385 e83d 590a de54 500a b673 e908
00000200: c054 ea88 9f1f 488a 0b5e 490a 7549 a908
00000210: 4060 4f0a bfdc cfa7 a6c5 8ca7 7bde faa7
00000220: a373 1da8 eea5 d8a7 acf6 07a8 b545 2aa7
00000230: f86f c1a3 1f55 c2a4 6edb 10a4 3950 66a3
00000240: 056f 04a1 875a 88a0 5050 4d1c 0dd3 05ac
00000250: 7541 4dab 7277 48ab 4c01 d6ac 26aa 60ac
00000260: c282 6ead eeb3 2fae cbcb 19b0 83b3 31b0
00000270: 43bf 20b0 56fb 93af db34 a3af 3d95 75af
00000280: fe42 28af e96c 1d93 9b77 1c93 302c 1293
00000290: 952c 5792 b5b2 1811 56fd 048f 49c9 250d
000002a0: 4114 80b2 4f75 beb2 0cce ddb2 eaa3 bcb2
000002b0: 90dd a2b2 78f8 31b2 8bcd a9b1 468b a124
000002c0: b3ef 1e25 1554 2924 ce6e 7221 ae8f 741e
000002d0: 465b eb9a 73ff 5999 9c11 5e8a 4682 610a
000002e0: 32a9 5b8a 9374 590a 7b1a 4b8a 1cb2 578a
000002f0: 8772 628a d0f7 4d0a 35e0 4e8a 6310 538a
00000300: b6ef 4d8a af8b 3988 f69e 510a b135 4d8a
00000310: 5a5e 550a 49ee 520a 16b6 528a 10ae 9689
00000320: e44c 4f8a 0786 6b0a 424e 548a 5153 8c91
00000330: 058b 6790 4412 8e91 fbca 920f 73a9 ef0f
00000340: 62e0 db0f 2b03 a08c 31dd f69d 323b 3ea4
00000350: 89e8 dba6 c034 94a7 c872 14a7 7072 90a4
00000360: afa4 fea0 4ad0 011e e1e1 ab1c f6cf f11c
00000370: 1c42 8f1a c47b 441f 4c13 1aa0 d7f6 6ca1
00000380: 118e 6f0a f835 698a 40c9 658a 208a 6b8a
00000390: efe7 5e8a e8bc 698a 16b3 5c0a 6e4a 680a
000003a0: b146 5d0a 9035 5b8a d37a 670a 6587 5f0a
000003b0: 8304 6e8a 9467 650a 7bd3 97a9 65aa 44aa
000003c0: bd40 22aa 34fd 3faa 6742 eea8 56ff bea7
000003d0: cb60 bba5 9f7b 670a 9c22 5b8a 5b5d 6f0a
000003e0: 588f 708a 2ea9 6f0a de08 620a bd60 5d0a
000003f0: 72c6 530a 2b0b 538a ca78 4c8a 2ca1 480a

conv.4.bias f4 [128]
1.1676488e-32 1.5151563e-06 -1.1262976e-32 1.0898897e-32 -1.1036492e-32 1.0629099e-32 2.8945938e-06 3.9849515e-06
-3.0774881e-06 -1.04503226e-32 4.1708713e-06 1.1460723e-32 3.840292e-07 2.3256416e-07 -6.446651e-08 3.542096e-06
2.0167826e-07 5.265421e-06 1.12125396e-32 1.1944248e-07 -1.0727294e-32 -1.11829715e-32 -1.1659836e-32 -9.413861e-07
4.9974037e-06 1.1715388e-32 1.9204957e-05 -1.1618571e-32 1.8657262e-05 2.26734e-06 1.0395022e-05 1.1329862e-32
-1.060953e-32 1.4432198e-06 1.045481e-32 -1.123937e-32 -1.7935863e-06 1.15128504e-32 -1.638885e-26 -5.7663865e-06
1.0258072e-08 1.1538627e-32 1.0529457e-32 -6.3203087e-09 9.330333e-06 3.1772138e-06 -6.1237774e-06 -5.1644656e-07
1.0743121e-32 1.11910405e-32 1.1342436e-32 2.973029e-06 2.1188287e-06 -9.375442e-07 1.1710408e-32 2.7171535e-07
6.867801e-06 -1.1280936e-32 1.1240148e-32 -4.757707e-09 -1.0967231e-32 -1.05545845e-32 -1.564337e-06 2.6981064e-05
5.013776e-30 -1.1977963e-06 9.79369e-06 -1.0796151e-32 -1.2369756e-05 -7.5593607e-07 2.2053998e-32 -1.1415834e-32
1.6083106e-06 -8.948098e-07 -1.1325981e-32 -2.6584721e-05 9.756667e-08 -1.0487528e-32 1.3534958e-11 1.2893818e-06
-8.9830746e-07 1.1703232e-32 -1.9045898e-05 -1.4955694e-06 -1.0618984e-32 -1.11832624e-32 -1.05236124e-32 2.5052404e-06
1.1016959e-32 -1.9585204e-05 -1.14973736e-32 1.0669708e-32 -4.495171e-09 -5.2916903e-07 1.0605751e-32 7.000283e-06
4.6703352e-09 1.116994e-32 -4.4972523e-07 -1.06336145e-32 -2.4526435e-07 3.5884796e-06 3.936512e-06 -5.0427053e-07
1.1798724e-05 2.5035033e-06 4.0367586e-06 1.13233226e-32 1.0658449e-32 -1.1035122e-32 -1.3468833e-15 6.0847907e-12
1.1723416e-32 -1.0517381e-32 2.753843e-07 -1.1349032e-32 3.8932994e-06 -2.0100915e-06 -1.2030849e-05 -7.1767226e-07
-8.317135e-07 -5.2649502e-06 -1.2901146e-06 1.1503437e-32 1.06454664e-32 -6.7167603e-06 1.1956065e-05 1.0684957e-32
00000000: dc82 720a 605c cb35 41ec 698a 7a5c 620a
00000010: 0e38 658a fcc1 5c0a be40 4236 79b6 8536
00000020: d886 4eb6 720b 598a 83f3 8b36 a807 6e0a
00000030: 922c ce34 c0b6 7934 d770 8ab3 bfb4 6d36
00000040: e68c 5834 9fad b036 16e0 680a 1940 0034
00000050: 14cc 5e8a e042 688a 522a 728a 8fb3 7cb5
00000060: 5faf a736 b051 730a 551a a137 eb4e 718a
00000070: 2a82 9c37 9b28 1836 4866 2e37 e14f 6b0a
00000080: f059 5c8a a8b4 c135 4e23 590a be6e 698a
00000090: 28bb f0b5 d01c 6f0a ac4e a294 e27c c1b6
000000a0: 7a3b 3032 dda5 6f0a 32b0 5a0a 062a d9b1
000000b0: 7a89 1c37 1e38 5536 d97a cdb6 f0a1 0ab5
000000c0: 3b20 5f0a c76d 680a bc92 6b0a 4084 4736
000000d0: 3331 0e36 8cab 7bb5 3537 730a 46e0 9134
000000e0: f671 e636 be4b 6a8a e172 690a 3c79 a3b1
000000f0: cdc7 638a cc35 5b8a 36f6 d1b5 6555 e237
00000100: 0762 cb0e f8c3 a0b5 944f 2437 2f3a 608a
00000110: b387 4fb7 88eb 4ab5 9505 e50a fc18 6d8a
00000120: 22dd d735 dc32 70b5 3e3b 6b8a 4102 dfb7
00000130: d885 d133 43d1 598a 081c 6e2d d20e ad35
00000140: 3823 71b5 0e11 730a c1c4 9fb7 60bb c8b5
00000150: 348c 5c8a 6c44 688a 1f91 5a8a b41f 2836
00000160: 34d0 640a e84a a4b7 86ca 6e8a e699 5d0a
00000170: f173 9ab1 380c 0eb5 d845 5c0a f9e3 ea36
00000180: b478 a031 96fd 670a c471 f1b4 fed9 5c8a
00000190: e0ac 83b4 9cd1 7036 6116 8436 355d 07b5
000001a0: 22f3 4537 dc01 2836 7e73 8736 1c2d 6b0a
000001b0: 095e 5d0a c630 658a 391b c2a6 ec16 d62c
000001c0: 5f7c 730a fd6f 5a8a 88d8 9334 ceb5 6b8a
000001d0: 30a3 8236 1ce5 06b6 1ad8 49b7 10a6 40b5
000001e0: eb42 5fb5 94a9 b0b6 0028 adb5 c3ea 6e0a
000001f0: 0219 5d0a 8860 e1b6 e896 4837 faea 5d0a

conv.5.weight f4 [128]
-0.0027712581 0.66328746 -0.00029113604 -0.0056144674 -0.0012546948 -8.8826506e-05 0.6159979 0.6055187
0.8599258 -4.0405825e-11 0.9080905 0.0049115345 0.31972554 0.252872 0.18228057 0.79488355
0.43598703 0.99439055 -0.0018274412 0.00010849969 1.0727755e-14 1.0188078e-32 6.5665675e-18 0.7846982
0.71162194 4.730191e-05 0.5830451 -0.0065799155 0.6126333 0.75254655 0.77139884 4.95864e-30
-0.00015270847 0.69852203 2.706639e-05 -0.008201055 0.7677735 1.2821237e-17 -3.635742e-16 0.64262
0.16361837 0.00069600466 0.00036108648 0.14474323 0.77899593 0.6795808 0.9066696 0.7219176
9.889816e-33 6.7192805e-23 -1.0237104e-32 0.47638515 0.7496343 0.9328479 -1.0430775e-32 0.17019439
0.7096297 -1.00755926e-32 1.0138169e-32 0.0027380085 -5.2504623e-05 -1.02227e-32 0.17165425 0.66949344
-1.5945063e-25 0.5900928 0.60612446 1.12197475e-32 0.80977774 0.51400524 1.7264116e-31 -0.0053537306
0.35029763 0.5165462 1.5906421e-22 0.59080243 0.6406935 1.643472e-07 0.011202447 0.813585
0.74573576 -1.0166183e-32 0.65345293 0.20487103 -5.4688957e-22 -7.189633e-05 -9.548433e-33 0.80168027
0.00082714675 1.1307797 0.006491402 0.009392446 -0.0020350588 0.49078438 9.523538e-14 0.7668047
-0.0016463074 -9.679763e-33 0.316593 0.0005766497 0.760818 0.66685945 0.68089783 0.5348669
0.67874426 0.7241764 0.75838375 -1.1037494e-19 -1.0069627e-32 8.559415e-30 0.0056522344 0.01014326
8.773152e-24 -0.0074321707 0.37413958 -1.0236799e-32 0.7935336 0.95551354 0.56564647 0.089879505
0.24771263 0.81123185 0.8439167 0.00277609 -1.0540804e-32 0.5903406 0.698076 -0.00091834896
00000000: ff9d 35bb 35cd 293f 9ea3 98b9 91f9 b7bb
00000010: 9274 a4ba 5e48 bab8 0ab2 1d3f 4603 1b3f
00000020: 1924 5c3f eab4 31ae 9e78 683f f0f0 a03b
00000030: 11b3 a33e 7078 813e c2a7 3a3e 7d7d 4b3f
00000040: b139 df3e 6190 7e3f c086 efba 548a e338
00000050: 0a41 4128 1d99 530a 7a43 f222 fbe1 483f
00000060: db2c 363f 0a66 4638 7242 153f 559c d7bb
00000070: 89d5 1c3f e4a6 403f 657a 453f 7625 c90e
00000080: 5e20 20b9 57d2 323f a10c e337 b85d 06bc
00000090: ce8c 443f 9482 6c23 1596 d1a5 bf82 243f
000000a0: 938b 273e 1574 363a 3550 bd39 9237 143e
000000b0: 476c 473f 02f9 2d3f 801b 683f 98cf 383f
000000c0: 4867 4d0a 5576 a21a c89d 548a c1e8 f33e
000000d0: 09e8 3f3f 1fcf 6e3f 83a3 588a 7047 2e3e
000000e0: 4baa 353f 0a43 518a c18f 520a 2970 333b
000000f0: 6938 5cb8 3251 548a 22c6 2f3e ec63 2b3f
00000100: ec63 4596 5210 173f f92a 1b3f 6906 690a
00000110: 984d 4f3f d995 033f de19 600c 596e afbb
00000120: 365a b33e 5f3c 043f fd4b 401b d43e 173f
00000130: 7d04 243f 6a77 3034 788a 373c 1b47 503f
00000140: 8ae8 3e3f b324 538a b148 273f b6c9 513e
00000150: 8849 259c 0cc7 96b8 2e50 468a eb3a 4d3f
00000160: e1d4 583a 64bd 903f d4b5 d43b c6e2 193c
00000170: 9f5e 05bb 1748 fb3e 7573 d629 504d 443f
00000180: e9c8 d7ba 730a 498a 7a18 a23e 4e2a 173a
00000190: f8c4 423f 4db7 2a3f 524f 2e3f 0aed 083f
000001a0: 2fc2 2d3f a063 393f 7025 423f c74e 02a0
000001b0: 5223 518a 069b 2d0f 6136 b93b ea2f 263c
000001c0: 8bb2 2919 9189 f3bb 398f bf3e 299c 548a
000001d0: 0525 4b3f 899c 743f 35ce 103f bf12 b83d
000001e0: 61a8 7d3e e4ac 4f3f ed0a 583f 10ef 353b
000001f0: 87ec 5a8a 9020 173f 1cb5 323f 5bbd 70ba

conv.5.bias f4 [128]
-0.013079023 0.17174381 -0.0007015615 -0.018418023 -0.005939434 -1.3401739e-06 -0.6753474 -0.3067083
0.25320342 -9.7018215e-29 -0.15765572 -0.008747574 -0.2451142 0.2629316 -0.22424819 0.10342353
-0.34771824 0.12496013 -0.032425147 0.20032127 -4.7437207e-17 -1.0210967e-32 -4.1337215e-29 0.18754038
-0.11662001 -4.4155318e-10 -0.5416265 -0.015490985 -0.41677597 0.12856936 -0.3539348 -0.00024302011
-0.000480392 -0.111691184 -1.6184633e-06 -0.024721554 0.08395228 -4.3656257e-31 -5.080362e-08 0.2939712
-0.34883875 -3.89803e-05 -0.000506585 -0.19492438 0.017766494 -0.04595235 -0.29717264 0.1806741
-1.0524551e-09 -8.7637035e-30 -5.1599083e-17 -0.14666504 0.55096036 -0.076346256 -9.9855365e-33 -0.16951963
-0.4222409 -4.1602524e-30 -2.6916001e-27 0.28818893 -0.0011425852 -9.819462e-19 0.14776604 -0.26058382
-0.0003595957 -0.07799189 -0.3437159 -9.638846e-10 -0.9758087 -0.056039423 -0.0011062027 -0.013901547
-0.33072144 0.0053820894 -1.641512e-30 -0.61250395 -0.052049283 -7.581513e-10 -0.033869226 0.14714192
-0.06941075 -1.0423212e-32 -0.52422976 0.18347406 -7.1888674e-32 -0.0031917505 -7.532662e-24 0.08968474
-0.022800846 -0.0380582 -0.0017901203 -0.008446363 0.030284798 -0.38686472 -9.808057e-25 -0.50482917
0.016047232 -0.0020828438 -0.06636795 -1.05806805e-07 -0.07788082 0.28457958 -0.036286913 -0.41523626
-0.62756705 -0.17848466 0.2488853 -1.5054918e-31 -9.97792e-33 -1.5630052e-32 -0.028167538 -0.06563762
-9.960747e-33 -0.014081243 -0.4280516 -1.3170109e-18 0.075254545 -0.29345247 -0.61936885 0.33230078
0.18350084 0.23341177 -0.23162697 -0.005236672 -1.0581467e-32 -0.135091 -0.3040495 -0.0012882493
00000000: 6649 56bc 9cdd 2f3e ffe8 37ba 65e1 96bc
00000010: 959f c2bb 06e0 b3b5 91e3 2cbf df08 9dbe
00000020: e1a3 813e 6cf8 f590 8070 21be fc51 0fbc
00000030: 38ff 7abe f89e 863e 51a1 65be b7cf d33d
00000040: 2008 b2be 19eb ff3d 3bd0 04bd 0521 4d3e
00000050: f8c3 5aa4 d012 548a c69a 5190 960a 403e
00000060: 79d6 eebd 16bf f2af 09a8 0abf e6cd 7dbc
00000070: a963 d5be b0a7 033e f136 b5be 37d3 7eb9
00000080: 1fdd fbb9 59be e4bd fa39 d9b5 db84 cabc
00000090: 2cef ab3d 33ac 0d8d 2c33 5ab3 6583 963e
000000a0: fe9a b2be c77e 23b8 58cc 04ba 429a 47be
000000b0: 0a8b 913c 8838 3cbd 0327 98be a202 393e
000000c0: f9a5 90b0 c0bf 318f 72f5 6da4 5c2f 16be
000000d0: bd0b 0d3f 6d5b 9cbd 3864 4f8a 8e96 2dbe
000000e0: f62f d8be 88c2 a88e 2340 5593 808d 933e
000000f0: ccc2 95ba e1e8 90a1 fb4f 173e 3e6b 85be
00000100: 1e88 bcb9 36ba 9fbd 88fb afbe ad79 84b0
00000110: 99ce 79bf 9889 65bd 01fe 90ba 50c3 63bc
00000120: 5254 a9be 3d5c b03b df2c 058e 0fcd 1cbf
00000130: a131 55bd 2866 50b0 75ba 0abd 5fac 163e
00000140: 3927 8ebd 4d7b 588a ec33 06bf a0e0 3b3e
00000150: 38a2 ba8b b02c 51bb f0b3 1199 a2ac b73d
00000160: d7c8 babc eae2 1bbd 78a2 eaba 9d62 0abc
00000170: d317 f83c 2213 c6be b7c5 9797 7c3c 01bf
00000180: 7c75 833c 5280 08bb ebeb 87bd e837 e3b3
00000190: fb7f 9fbd 6ab4 913e 96a1 14bd d999 d4be
000001a0: 3ca8 20bf afc4 36be cadb 7e3e 8c6c 438c
000001b0: b93b 4f8a ce4f a28a 9cbf e6bc 046d 86bd
000001c0: 6ae0 4e8a 04b5 66bc 9429 dbbe 445b c2a1
000001d0: 0e1f 9a3d 673f 96be f58e 1ebf 5423 aa3e
000001e0: a5e7 3b3e 7f03 6f3e 9f2f 6dbe 6398 abbb
000001f0: bbc4 5b8a 4c55 0abe 60ac 9bbe 79da a8ba

conv.5.running_mean f4 [128]
2.1121787e-07 1.2246948 4.460907e-09 -3.1964697e-05 2.1025448e-06 -3.536343e-24 -0.044774033 0.6103996
1.475372 -6.507682e-32 -2.723943 5.3020203e-20 -0.11942214 -1.9933723 0.047871344 1.9457378
-0.18776187 1.5906771 -1.7075527e-05 -0.3799306 5.140599e-32 2.9596085e-32 7.891726e-32 1.3530086
-2.7113776 -6.6583225e-33 -2.0688121 -6.4033034e-06 -1.8669188 1.104221 -0.347882 -2.8722362e-29
-4.038125e-32 1.929303 -1.2041154e-31 2.1801343e-05 1.7393606 2.7626388e-31 6.058492e-19 -1.4387255
-0.12883404 -1.2315559e-16 4.2806118e-32 -0.026625909 -3.3531764 -2.6862042 -1.4120681 1.3352848
4.762945e-31 3.540356e-31 1.4116641e-31 -0.9638928 -0.062174685 2.0781527 1.7517493e-31 -0.31502938
-1.3916068 2.1305835e-31 4.6976716e-32 -0.61929727 9.063955e-33 2.5391348e-32 -0.94638795 -1.6196136
-2.879955e-23 0.57054776 -1.5001969 4.5341268e-32 -1.5094273 -1.325695 -5.022983e-32 0.00029635552
-0.2893881 -2.2495608 -3.7307105e-32 -1.5391902 0.5342719 -1.498716e-31 -0.012208629 -3.4944973
-1.6982594 1.7781052e-31 -0.6008069 -1.7883867 -1.4069894e-31 -1.4776891e-31 -8.5764174e-32 1.7492962
1.9830323e-07 2.4783297 4.1363377e-18 -5.162511e-07 -0.14198849 0.004446554 -8.457996e-32 0.6344228
0.38863283 -6.816855e-32 -0.93849343 5.1030085e-32 -0.40354112 -0.26364043 -2.4483213 -2.3187099
-1.0173274 -0.5455311 0.4547547 -2.3605829e-31 2.4957116e-31 1.4093153e-31 -0.011722572 0.06270622
1.2509446e-32 3.9584915e-12 0.5658939 -1.504375e-31 -3.2481377 -1.4147555 -1.7663054 -1.1332705
-1.7024934 1.8100516 -1.0763696 -7.4553377e-06 1.1125698e-31 -1.1601808 -1.2122921 -4.0771497e-11
00000000: 20cb 6234 cdc2 9c3f 8e46 9931 d511 06b8
00000010: 7219 0d36 3fce 8898 fa64 37bd 2643 1c3f
00000020: fdd8 bc3f f7f2 a88b 1555 2ec0 7e61 7a1f
00000030: 9893 f4bd d326 ffbf be14 443d f00d f93f
00000040: a644 40be 4f9b cb3f 6a3d 8fb7 4386 c2be
00000050: 2475 850b f2ab 190b 84e1 cc0b 632f ad3f
00000060: 3687 2dc0 b749 0a8a 6b67 04c0 f5db d6b6
00000070: 32f7 eebf 1d57 8d3f 971d b2be c2a3 1190
00000080: e3ab 518b 67f3 f63f 994d 1c8c 07e2 b637
00000090: 5ea3 de3f 364e b30c acd0 3221 2828 b8bf
000000a0: 12ed 03be 1dfd 0da5 1743 5e0b 941e dabc
000000b0: 719a 56c0 c5ea 2bc0 a6be b4bf 9dea aa3f
000000c0: 0091 1a0d 41c8 e50c 963e 370c aec1 76bf
000000d0: e2aa 7ebd 7400 0540 db63 630c 884b a1be
000000e0: 2c20 b2bf 6448 8a0c c4ea 730b 448a 1ebf
000000f0: 4040 3c0a e4d6 030b 7b46 72bf 804f cfbf
00000100: 1e44 0b9a 6b0f 123f 7406 c0bf e26c 6b0b
00000110: ea34 c1bf 60b0 a9bf 7367 828b 2a60 9b39
00000120: ad2a 94be cef8 0fc0 a6b5 418b 2f04 c5bf
00000130: 0bc6 083f 628b 428c b406 48bc d8a5 5fc0
00000140: 9060 d9bf aecf 660c 7bce 19bf dbe9 e4bf
00000150: 3ea3 368c a5d0 3f8c 12a8 de8b f0e8 df3f
00000160: 2ded 5434 f49c 1e40 9b9a 9822 8194 0ab5
00000170: 6e65 11be 66b4 913b 0695 db8b 8869 223f
00000180: e2fa c63e c6f9 b08b 1b41 70bf 4f7b 840b
00000190: f19c cebe e1fb 86be 4cb1 1cc0 be65 14c0
000001a0: c937 82bf eda7 0bbf 9cd5 e83e e935 998c
000001b0: 1ffb a10c 89f0 360c 0810 40bc 1e6c 803d
000001c0: d0e7 810a ec46 8b2c 6cde 103f 6f47 438c
000001d0: 7de1 4fc0 b516 b5bf 4c16 e2bf 020f 91bf
000001e0: 4eeb d9bf c5af e73f 7bc6 89bf dd28 fab6
000001f0: 796b 100c ce80 94bf 632c 9bbf a050 33ae

conv.5.running_var f4 [128]
7.829607e-14 3.7284157 3.0473764e-17 1.2717365e-09 2.1747704e-11 0.0 1.4879174 2.9788725
4.2071624 0.0 4.625126 0.0 0.29216295 1.54864 0.14300473 3.3881643
1.377944 5.977732 2.362593e-09 0.29352507 0.0 0.0 0.0 3.7089517
9.120299 0.0 0.72651875 2.3718422e-10 2.025365 2.9679468 1.6807684 0.0
0.0 1.8660097 0.0 5.708306e-10 3.1556933 0.0 1.6738478e-34 1.7780244
0.34710634 3.6506326e-32 0.0 0.033141997 10.140802 17.164694 2.7267203 3.8467038
0.0 0.0 0.0 1.1463991 3.9371166 4.8322415 0.0 0.04556987
0.9541099 0.0 0.0 0.20855652 0.0 0.0 1.2749311 1.6873603
0.0 1.4448978 1.4232315 0.0 1.0435632 1.2214506 0.0 1.92208e-07
0.718298 11.014912 0.0 0.6845125 1.7360408 0.0 0.0002827244 4.72216
19.565487 0.0 0.6487463 1.5674715 0.0 0.0 0.0 3.3965569
7.6942196e-14 2.9021475 3.5091115e-35 3.4469996e-13 0.9038308 0.90650076 0.0 6.215626
0.12752986 0.0 1.229096 0.0 2.3748336 3.0019946 15.957437 1.6638806
0.9316769 3.409059 4.1589985 0.0 0.0 0.0 0.0024070356 0.2591362
0.0 2.9784046e-23 1.3992852 0.0 9.646591 2.0065439 0.57785726 1.1184077
1.907685 5.174238 1.6932111 1.06928105e-10 0.0 2.0901127 2.5637214 3.6608457e-21
00000000: 9d4e b029 5d9e 6e40 1289 0c24 40c9 ae30
00000010: 7a4b bf2d 0000 0000 1474 be3f d9a5 3e40
00000020: 13a1 8640 0000 0000 0801 9440 0000 0000
00000030: 6296 953e d639 c63f d56f 123e afd7 5840
00000040: 7860 b03f 9549 bf40 2d5b 2231 eb48 963e
00000050: 0000 0000 0000 0000 0000 0000 775f 6d40
00000060: bfec 1141 0000 0000 22fd 393f b664 822f
00000070: 959f 0140 d7f2 3d40 6b23 d73f 0000 0000
00000080: 0000 0000 68d9 ee3f 0000 0000 a2e8 1c30
00000090: e1f6 4940 0000 0000 177e 5e07 4e96 e33f
000000a0: ecb7 b13e 3b8d 3d0b 0000 0000 e7bf 073d
000000b0: ba40 2241 4b51 8941 9682 2e40 6530 7640
000000c0: 0000 0000 0000 0000 0000 0000 35bd 923f
000000d0: b8f9 7b40 b9a1 9a40 0000 0000 79a7 3a3d
000000e0: 8c40 743f 0000 0000 0000 0000 d78f 553e
000000f0: 0000 0000 0000 0000 f130 a33f 6cfb d73f
00000100: 0000 0000 69f2 b83f 732c b63f 0000 0000
00000110: 7b93 853f 7e58 9c3f 0000 0000 bc61 4e34
00000120: 61e2 373f 143d 3041 0000 0000 363c 2f3f
00000130: 9636 de3f 0000 0000 a03a 9439 ef1b 9740
00000140: 1e86 9c41 0000 0000 3d14 263f e8a2 c83f
00000150: 0000 0000 0000 0000 0000 0000 3061 5940
00000160: 2842 ad29 c9bc 3940 8d93 3a06 800c c22a
00000170: 7561 673f 6f10 683f 0000 0000 68e6 c640
00000180: 3097 023e 0000 0000 0553 9d3f 0000 0000
00000190: 46fd 1740 ae20 4040 a951 7f41 0afa d43f
000001a0: 6182 6e3f 062e 5a40 8416 8540 0000 0000
000001b0: 0000 0000 0000 0000 5bbf 1d3b 80ad 843e
000001c0: 0000 0000 dd06 101a c71b b33f 0000 0000
000001d0: 7058 1a41 376b 0040 74ee 133f fc27 8f3f
000001e0: 062f f43f 5c93 a540 24bb d83f 2c23 eb2e
000001f0: 0000 0000 68c4 0540 0314 2440 874d 8a1d

conv.8.weight f4 [128, 128, 7]
1.1192309e-32 1.07209544e-32 -1.1005107e-32 1.1319408e-32 1.1507442e-32 -1.1679699e-32 1.1152675e-32 0.010951596
0.008370972 0.0067370012 0.006000653 0.0065085897 0.008145677 0.010563128 1.08707506e-32 -1.15936995e-32
1.1412825e-32 1.17107846e-32 1.1104732e-32 -1.0696355e-32 1.1551481e-32 1.0743463e-32 -1.0379124e-32 1.0561693e-32
1.0251656e-32 -1.038758e-32 9.6219054e-33 -1.0745881e-32 -1.06019834e-32 1.0482609e-32 -1.0440926e-32 -9.855212e-33
-9.761734e-33 -1.00766094e-32 -9.9578676e-33 1.0278974e-32 -1.0408105e-32 -1.05146236e-32 -1.0758341e-32 1.0333747e-32
-1.00154374e-32 1.0428418e-32 -0.023663158 -0.02326309 -0.023153389 -0.02326195 -0.023202857 -0.023223458
-0.02312216 -5.738645e-05 -2.4064819e-05 -3.8285816e-05 -0.00010614603 -0.00016501879 -0.00027635286 -0.00029634236
0.013993716 0.011274081 0.008588501 0.0076877233 0.008602924 0.010651554 0.013361428 -1.100318e-32
-1.1659303e-32 -1.1317389e-32 1.1139027e-32 -1.1269482e-32 1.0710577e-32 -1.175163e-32 0.02500686 0.025173903
0.025026586 0.025008328 0.024962287 0.024719048 0.024469659 1.0548666e-32 1.0498169e-32 1.04592394e-32
-1.05849336e-32 1.0436864e-32 -1.0277824e-32 -1.0220063e-32 2.066171e-05 3.4463657e-05 4.8065667e-05 5.7823385e-05
6.197096e-05 5.564582e-05 4.2798918e-05 0.0038804077 0.0042533074 0.0058055096 0.0040960833 0.004079538
0.0045027635 0.004946241 -1.4517838e-05 -1.020687e-05 -7.0155893e-06 -5.2785424e-07 1.3734255e-05 1.4975997e-05
1.4913022e-05 0.0119301975 0.009217769 0.0073852697 0.00684722 0.0075900406 0.0095255915 0.01200264
-0.0041831215 -0.0042255963 -0.003942852 -0.0037568058 -0.0038702039 -0.0028508296 -0.002741369 0.00995696
0.007139709 0.005056674 0.0048959046 0.004695041 0.0070252744 0.010363485 -1.0485646e-32 1.05001275e-32
1.05458785e-32 1.0259827e-32 -1.0322983e-32 1.074446e-32 1.0400471e-32 -7.0073474e-07 -8.9975174e-07 -1.3650642e-05
-5.121327e-06 4.837503e-06 5.5924793e-06 -2.110523e-06 1.0065322e-32 -1.0599448e-32 -9.810314e-33 -1.0308448e-32
-1.0204652e-32 -1.01090156e-32 -1.0635663e-32 -1.0640516e-32 -1.1083692e-32 -1.0710722e-32 1.0218351e-32 1.0781107e-32
1.0407493e-32 -1.1439392e-32 5.4868355e-33 -5.1397576e-33 1.1403622e-32 1.11283044e-32 1.661994e-33 1.14024355e-32
1.0520716e-32 0.012465666 0.009708011 0.007834246 0.007027232 0.0076113613 0.009877659 0.012165887
0.021160632 0.021117434 0.021149995 0.020761002 0.02099466 0.020857537 0.020158373 -1.0344581e-32
1.06454715e-32 -9.7245716e-33 9.6318604e-33 1.0586451e-32 1.005538e-32 -1.0334135e-32 4.4443368e-05 4.4946064e-05
4.4791683e-05 7.592695e-05 6.890897e-05 5.875953e-05 3.495997e-05 -1.1267426e-32 1.1729171e-32 1.0570069e-32
-1.0739753e-32 1.1589121e-32 -1.1345536e-32 -1.0873377e-32 -0.021898018 -0.021464726 -0.021269407 -0.021079462
-0.020851765 -0.020807886 -0.021060795 0.009759128 0.0066664717 0.004435841 0.0035487893 0.0043504834
0.0065947617 0.009685173 0.0018491959 0.0013175257 0.0009152307 0.00080114946 0.0006886584 0.0006604004
0.00096884824 -4.1851952e-10 -4.329706e-10 -4.3874634e-10 -4.5893023e-10 -4.297767e-10 -2.1799961e-11 -3.0795765e-11
1.035345e-32 1.05871464e-32 -1.044348e-32 -9.9505714e-33 -9.78562e-33 -1.0338057e-32 -9.9507874e-33 0.010084368
0.009150338 0.0086494 0.008639608 0.009060688 0.009853839 0.011021129 9.529615e-33 -1.1518818e-32
-9.80241e-33 -1.0125763e-32 -9.843846e-33 -9.493017e-33 -9.448784e-33 1.1475215e-32 1.0995516e-32 -1.1714706e-32
-1.1429579e-32 -1.0730456e-32 -1.0458347e-32 -1.1291144e-32 0.011069085 0.008308293 0.0063935244 0.005640779
00000000: 8674 680a 5faa 5e0a 2f91 648a 4c18 6b0a
00000010: 0e00 6f0a ee93 728a cba1 670a 536e 333c
00000020: 6726 093c 10c2 dc3b 20a1 c43b 0246 d53b
00000030: 7275 053c f810 2d3c d3c6 610a aeca 708a
00000040: fc08 6d0a 3639 730a e2a2 660a 9427 5e8a
00000050: 35ea 6f0a 0c22 5f0a e490 578a 985b 5b0a
00000060: 27eb 540a d9bd 578a d3d6 470a e72e 5f8a
00000070: d031 5c8a 1cb7 590a 7cd9 588a 4baf 4c8a
00000080: 48be 4a8a 7248 518a 1bd1 4e8a 667c 550a
00000090: fa2a 588a 5461 5a8a 2771 5f8a a09f 560a
000000a0: 3303 508a fb96 580a 3dd9 c1bc 3c92 bebc
000000b0: 2dac bdbc d88f bebc eb13 bebc 1f3f bebc
000000c0: af6a bdbc 3bb2 70b8 cede c9b7 1595 20b8
000000d0: b79a deb8 e508 2db9 74e3 90b9 665e 9bb9
000000e0: e645 653c ecb6 383c c9b6 0c3c 4ce9 fb3b
000000f0: 47f3 0c3c db83 2e3c e4e9 5a3c f186 648a
00000100: 7d27 728a 900d 6b8a 3a59 670a d80e 6a8a
00000110: 3273 5e0a 6212 748a 30db cc3c 8039 ce3c
00000120: 8e04 cd3c 44de cc3c b67d cc3c 9a7f ca3c
00000130: 9874 c83c 5416 5b0a d709 5a0a db3a 590a
00000140: 29d7 5b8a e3c3 580a 4976 558a 2d43 548a
00000150: af52 ad37 128d 1038 1e9a 4938 6387 7238
00000160: 68f6 8138 3f65 6938 fd82 3338 704e 7e3b
00000170: 545f 8b3b 253c be3b 7038 863b a5ad 853b
00000180: eb8b 933b 1414 a23b a491 73b7 2c3e 2bb7
00000190: 7467 ebb6 deb1 0db5 2d6c 6637 6b41 7b37
000001a0: f132 7a37 e076 433c 2006 173c 2200 f23b
000001b0: a55e e03b e0b5 f83b 3a11 1c3c b9a6 443c
000001c0: 9112 89bb df76 8abb 0a33 81bb be34 76bb
000001d0: 3fa3 7dbb fcd4 3abb 8aa8 33bb 8422 233c
000001e0: 38f4 e93b 75b2 a53b d36d a03b dcd8 993b
000001f0: 4634 e63b 9bcb 293c 42c7 598a 4114 5a0a
00000200: 8207 5b0a 9916 550a 6466 568a 5927 5f0a
00000210: 6402 580a 201a 3cb5 7886 71b5 1005 65b7
00000220: ddd7 abb6 d651 a236 08a7 bb36 82a2 0db6
00000230: 6e0c 510a 5524 5c8a 93c0 4b8a 1c19 568a
00000240: 3df1 538a bff4 518a e2e4 5c8a b0fe 5c8a
00000250: 0433 668a f773 5e8a 133a 540a 32ea 5f0a
00000260: b927 580a 3e96 6d8a 0bea e309 477f d589
00000270: 0ed8 6c0a 3720 670a b412 0a09 bfd1 6c0a
00000280: b981 5a0a cb3c 4c3c 590e 1f3c 365b 003c
00000290: b244 e63b ba68 f93b e8d5 213c 6e53 473c
000002a0: 1059 ad3c 78fe ac3c c142 ad3c fa12 aa3c
000002b0: fefc ab3c 6ddd aa3c 2c23 a53c 3ad9 568a
000002c0: 0919 5d0a b1f8 498a c10b 480a 3adf 5b0a
000002d0: 92d7 500a b0a1 568a b468 3a38 7884 3c38
000002e0: b4de 3b38 f93a 9f38 3983 9038 9174 7638
000002f0: fba1 1238 ea03 6a8a f89a 730a 2088 5b0a
00000300: 520e 5f8a 56b2 700a 37a3 6b8a cad4 618a
00000310: 7963 b3bc cbd6 afbc 2e3d aebc d6ae acbc
00000320: 52d1 aabc 4d75 aabc b087 acbc c0e4 1f3c
00000330: 6b72 da3b 885a 913b ce92 683b 808e 8e3b
00000340: df18 d83b 8fae 1e3c b860 f23a d4b0 ac3a
00000350: 18ec 6f3a 3b04 523a 1587 343a b81e 2d3a
00000360: 4efa 7d3a 6315 e6af 3207 eeaf 0f34 f1af
00000370: b04c fcaf b145 ecaf 26c1 bfad f370 07ae
00000380: 6208 570a ede2 5b0a 10e7 588a 50aa 4e8a
00000390: 483d 4b8a 8ab6 568a 76ab 4e8a e838 253c
000003a0: 4deb 153c 37b6 0d3c 248d 0d3c 4873 143c
000003b0: ff71 213c f791 343c 20ec 450a 8b3c 6f8a
000003c0: 8d96 4b8a ca4d 528a dd72 4c8a 8929 458a
000003d0: 5a3e 448a b554 6e0a 315e 640a 104e 738a
000003e0: 1162 6d8a e4dc 5e8a 1c36 598a 0582 6a8a
000003f0: 1c5b 353c 821f 083c c580 d13b 49d6 b83b

conv.8.bias f4 [128]
2.4114594e-10 3.857776e-06 -1.1118316e-32 1.11969635e-32 1.0977092e-32 -1.1220903e-32 2.3801467e-06 1.0658049e-32
1.166238e-32 1.2244305e-05 2.4124688e-08 -1.6383271e-06 -1.1526714e-32 -1.10394994e-32 1.084971e-32 3.3978397e-06
1.07459094e-32 1.1503592e-32 1.0699435e-32 6.8085756e-06 6.3877937e-06 -1.1549321e-32 -1.0707068e-32 -4.85464e-06
6.5060544e-06 1.07834026e-32 -3.0171208e-08 7.235396e-15 9.85998e-06 -2.091978e-06 1.06953235e-32 -1.0486271e-32
8.490387e-06 -1.0870413e-32 3.0459178e-06 1.3275994e-05 3.6675422e-06 1.1679226e-32 1.2997323e-06 -6.796186e-09
-4.8177526e-06 -6.9068396e-06 1.1276474e-32 9.664931e-06 -6.1079754e-06 5.720265e-06 -1.09807864e-32 1.2946129e-05
1.1752964e-32 1.1001391e-32 -1.151289e-32 1.0946577e-32 -1.0829963e-32 5.5310534e-11 1.6530441e-05 1.5327049e-07
-1.16522685e-32 -2.8941188e-06 6.3871703e-06 1.5007787e-05 -4.4566983e-10 -1.1351829e-32 -5.3546382e-06 -7.779312e-07
-1.5320442e-05 1.17296674e-32 2.0214047e-06 -1.16841045e-32 1.1589026e-32 -7.797006e-08 -1.1538389e-32 -3.4962326e-07
1.1428178e-32 -1.0303207e-05 1.13668834e-32 -1.1306733e-22 3.1076536e-06 5.6246745e-06 1.0880274e-32 1.126787e-32
-2.0381153e-06 -2.9382963e-06 -2.5077574e-05 1.151288e-32 2.4677985e-07 -1.1583675e-32 -1.07736636e-32 9.930832e-13
-1.1410109e-32 1.16463e-32 -4.7714166e-05 -1.11720276e-32 -1.1448027e-32 -1.11203676e-32 1.7468303e-06 -5.306824e-07
7.223204e-06 -1.0539401e-32 1.0516894e-32 -1.1684132e-32 1.0980376e-32 7.2152175e-06 -1.12733244e-32 1.1193617e-32
-1.16627965e-32 -1.1036316e-32 1.0658818e-32 -2.4234132e-06 6.6183843e-06 -1.1098043e-32 -1.1729834e-32 1.16048336e-32
-1.1211136e-32 -1.11157685e-32 -4.7495123e-06 4.193712e-08 6.0779116e-06 -1.0789773e-32 -1.1689194e-32 -1.1614801e-32
-2.6414154e-06 -1.1608184e-05 -1.0631466e-06 -2.489174e-07 1.163849e-32 -1.1437557e-32 -1.0947269e-32 -9.578838e-06
00000000: 4692 842f 0b72 8136 1ceb 668a 458d 680a
00000010: 3bfc 630a 8e0c 698a 9cba 1f36 e95b 5d0a
00000020: d937 720a e46c 4d37 c03a cf32 7ee4 dbb5
00000030: 8666 6f8a 0c48 658a f456 610a 7106 6436
00000040: 0e2f 5f0a 96eb 6e0a f437 5e0a 3875 e436
00000050: bb56 d636 b9de 6f8a 8a60 5e8a 0ae5 a2b6
00000060: 954e da36 67f6 5f0a 9895 01b3 6057 0228
00000070: 4b6c 2537 e963 0cb6 1822 5e0a 94ca 598a
00000080: ef71 0e37 07c5 618a 7868 4c36 f6bb 5e37
00000090: e51f 7636 6b91 720a 7672 ae35 e283 e9b1
000000a0: 2ea8 a1b6 4dc1 e7b6 0534 6a0a 9026 2237
000000b0: 1cf3 ccb6 b4f0 bf36 e00f 648a 3333 5937
000000c0: 7a19 740a 6d7d 640a 061d 6f8a fd59 630a
000000d0: f6ed 608a 2042 732e daaa 8a37 ac92 2434
000000e0: 1602 728a 9538 42b6 6051 d636 f4c9 7b37
000000f0: 7402 f5af adc4 6b8a feab b3b6 06d3 50b5
00000100: 6684 80b7 9c9d 730a 78a7 0736 5bab 728a
00000110: d5b1 700a 7e70 a7b3 99a4 6f8a dbb3 bbb4
00000120: 9e5a 6d0a f0db 2cb7 b814 6c0a a5b0 089b
00000130: 158d 5036 96bb bc36 76f9 610a 4606 6a0a
00000140: 8ec6 08b6 8c2f 45b6 ae5d d2b7 f81c 6f0a
00000150: 2a7d 8434 6195 708a 9fc2 5f8a 98c3 8b2b
00000160: 8cfa 6c8a 5ae2 710a b220 48b8 b008 688a
00000170: 27c4 6d8a 04f6 668a a274 ea35 3874 0eb5
00000180: da5e f236 11e5 5a8a 666d 5a0a 80ab 728a
00000190: b10d 640a 3f1a f236 4623 6a8a 7a7b 680a
000001a0: 103a 728a 1f37 658a ff5f 5d0a eca1 22b6
000001b0: 7d13 de36 517f 668a 7f9e 738a e105 710a
000001c0: a0d8 688a 90dd 668a 005e 9fb6 5a1e 3433
000001d0: ddf0 cb36 4618 608a 6ac6 728a e03a 718a
000001e0: 2c43 31b6 c5c0 42b7 70b1 8eb5 f2a2 85b4
000001f0: d4b8 710a 7c8c 6d8a aa5d 638a ccb4 20b7
